CryptoBotPro_Data/models/neural_net_model_v20_optimized.pth (torch, 183170 bytes, 46 tensors)

attention.attention.0.weight f4 [33, 66]
0	0x3df40b76	0.119162485
1	0x3e57869e	0.21047446
2	0xbb3e51c9	-0.0029040447
3	0x3e7bf9fc	0.2460708
4	0xbe347be5	-0.17625387
5	0xbd8fb51e	-0.07016967
6	0xbe221a4f	-0.15830348
7	0x3eed0cf0	0.46298933
8	0x3e7c4a35	0.24637683
9	0xbe9dad6c	-0.30796373
10	0x3d9a7ae0	0.07542968
11	0x3d2b4080	0.04180956
12	0xbe755e48	-0.23961747
13	0x3e3f7316	0.18696246
14	0xbe342aa5	-0.17594393
15	0xbdc73c20	-0.09728265
16	0x3d58daf5	0.05294319
17	0xbef31ea9	-0.4748433
18	0xbe0762cb	-0.1322128
19	0xbe933fcc	-0.2875961
20	0x3e683faf	0.22680543
21	0x3e3a98b3	0.18222313
22	0xbb8671fb	-0.004102943
23	0x3e608d5c	0.21928924
24	0x3defed92	0.11715235
25	0xbcbae4f9	-0.02281426
26	0x3caeed32	0.021353338
27	0x3c3605e1	0.0111098
28	0xbe4944a3	-0.19655089
29	0xbda2d0b4	-0.07949963
30	0x3dbb922f	0.09158742
31	0xbe24811e	-0.1606488
32	0x3e067f44	0.13134485
33	0xbe7a6f62	-0.24456552
34	0xbdc7ebbf	-0.09761762
35	0x3d6a7bfa	0.05724714
36	0xbe50e373	-0.20399265
37	0x3d5cb84d	0.0538867
38	0xbe3ffb2b	-0.18748157
39	0xbe6061d1	-0.21912314
40	0x3dce56ed	0.100751735
41	0xbec58cac	-0.38583887
42	0x3e563578	0.20918834
43	0xbc86ca46	-0.016453873
44	0xbe26cabf	-0.16288279
45	0x3e288d4a	0.16460148
46	0xbc9ff156	-0.019524258
47	0xbda5bb94	-0.08092418
48	0xbf1a5f65	-0.6030181
49	0xbe2c8061	-0.16845848
50	0xbe9a74f0	-0.3016734
51	0xbd9019f0	-0.07036197
52	0x3d95b5c2	0.07310058
53	0xbeb6be16	-0.356919
54	0xbcf9dadc	-0.030499868
55	0x3e423564	0.1896568
56	0xbe8a299b	-0.26984867
57	0x3c1c9bc0	0.009558618
58	0x3d64cbf6	0.055858575
59	0x3e34be33	0.1765068
60	0x3d3562ee	0.0442838
61	0xbeeec85e	-0.46637243
62	0xbe545d33	-0.20738678
63	0xbf0cd0ec	-0.5500629
64	0x3bcff200	0.0063459873
65	0xbe625d83	-0.22105984
66	0xbf1ed9bb	-0.6205098
67	0xbeddd27e	-0.43324655
68	0xbecbea4b	-0.3982719
69	0xbf20ecbe	-0.6286124
70	0x3eca1320	0.39467716
71	0xbea742b2	-0.32668072
72	0x3d45906c	0.048233435
73	0xbe4ced7b	-0.20012467
74	0xbd2d334c	-0.04228525
75	0xbe1d5a40	-0.15366459
76	0xbde2ed75	-0.110804476
77	0xbc8ebca6	-0.017423939
78	0x3e89adc5	0.26890388
79	0xbc7e38ca	-0.015516469
80	0xbdf116b0	-0.117719054
81	0xbd1d341c	-0.038379773
82	0x3f05f48d	0.5232628
83	0xbd1ff429	-0.03905121
84	0x3f382666	0.7193359
85	0xbeaba746	-0.33526057
86	0x3f52ef4b	0.8239638
87	0xbdd243c7	-0.10266834
88	0xbea6300d	-0.32458535
89	0xbed5f0fa	-0.41785413
90	0xbe7c39fc	-0.24631494
91	0xbf2e91d1	-0.6819125
92	0x3f34701f	0.70483583
93	0xbdf11d64	-0.11773184
94	0xbe76b515	-0.24092515
95	0xbe564526	-0.20924816
96	0xbf1a1819	-0.6019302
97	0xbebf3186	-0.3734247
98	0x3db4efd9	0.0883481
99	0xbe00303c	-0.125184
100	0x3d228717	0.039679613
101	0x3dbdd0b5	0.09268323
102	0xbe11bf55	-0.14233144
103	0x3d451f70	0.048125684
104	0x3f14d556	0.58138025
105	0x3e407bca	0.18797222
106	0x3eedfbea	0.46481258
107	0x3c0eadae	0.008708401
108	0x3f52edc5	0.8239406
109	0xbe3086a2	-0.17238858
110	0xbf08db08	-0.53459215
111	0xbf087c82	-0.53314984
112	0xbe33ad85	-0.17546661
113	0xbe957eeb	-0.29198393
114	0x3e4c4c86	0.19951066
115	0xbde72e83	-0.11288168
116	0xbdb71fec	-0.089416355
117	0xbe969a13	-0.29414424
118	0xbe4636d5	-0.19356854
119	0xbe946cea	-0.28989345
120	0xbe56b02f	-0.20965646
121	0x3da07784	0.07835296
122	0x3ed64dcb	0.41856226
123	0xbe63f908	-0.22262967
124	0x3e76d9b8	0.2410649
125	0xbd13cca5	-0.036083836
126	0x3f0808af	0.5313825
127	0x3e143df9	0.14476766
128	0x3ebc2f6f	0.3675494
129	0xbe86371e	-0.26213926
130	0x3f637dfc	0.8886411
131	0xbdeda13c	-0.11603019
132	0xbee14d17	-0.44004127
133	0xbec80cb1	-0.39072183
134	0xbed561aa	-0.41676074
135	0xbec77cf1	-0.3896251
136	0xbd5de894	-0.054176882
137	0xbe6efa38	-0.23337638
138	0xbd7e0e47	-0.062025335
139	0xbe5ddfb5	-0.21667369
140	0xbe3d3595	-0.18477471
141	0xbf09458e	-0.5362176
142	0xbe068ab8	-0.13138855
143	0x3e07e0dc	0.13269371
144	0x3e29e0b0	0.16589618
145	0xbe43a994	-0.19107658
146	0x3e22fe01	0.15917207
147	0xbe16f6d7	-0.147426
148	0x3dbf6d30	0.09346998
149	0xbe24917c	-0.16071123
150	0x3c303f2a	0.010757247
151	0x3d4c4887	0.049873855
152	0x3e169072	0.14703539
153	0x3e5e541f	0.21711777
154	0xbec22e83	-0.3792611
155	0xbe1d71dc	-0.15375465
156	0xbef9061b	-0.4863747
157	0xbe6335cc	-0.2218849
158	0xbe76692a	-0.24063554
159	0xbe250188	-0.16113865
160	0xbd881583	-0.06644728
161	0xbe8d6988	-0.27619576
162	0xbe7116cc	-0.23543853
163	0xbef81fd3	-0.4846178
164	0xbe9f4303	-0.31105813
165	0x3e5e51cb	0.21710889
166	0x3ed83ddf	0.42234704
167	0xbc740711	-0.014894263
168	0xbd949863	-0.07255628
169	0xbe232853	-0.15933351
170	0xbd87e28d	-0.06635008
171	0xbdabb4cd	-0.083840944
172	0xbea83f47	-0.32860777
173	0xbe60f67e	-0.2196903
174	0x3d7525d7	0.05985054
175	0xbe317adf	-0.17332028
176	0xbeaadef5	-0.33373228
177	0xbebf9450	-0.3741784
178	0xbde5d21b	-0.11221715
179	0xbe66195c	-0.22470611
180	0xbe9364cc	-0.2878784
181	0xbe523579	-0.2052821
182	0xbdff52f7	-0.12466996
183	0xbe932dce	-0.28745884
184	0x3d6503ab	0.0559117
185	0xbf19a6d9	-0.60020214
186	0xbe9f7be1	-0.311492
187	0xbc88e6d0	-0.016711622
188	0x3e269946	0.16269407
189	0x3db51c65	0.088433065
190	0xbc4aa411	-0.012368218
191	0x3e77ee42	0.24211982
192	0x3c58a64e	0.013223244
193	0xbd1eb67e	-0.038748257
194	0xbeb33d5f	-0.3500776
195	0xbdd5a651	-0.10432113
196	0xbe1a42c2	-0.15064529
197	0xbe55e6fe	-0.20888898
198	0xbc834e9c	-0.016028695
199	0x3e179197	0.14801632
200	0x3d9dd05a	0.077057555
201	0xbd8720ee	-0.06598078
202	0x3e0bed27	0.13664685
203	0xbdc1eb18	-0.09468669
204	0xbdd06360	-0.10175204
205	0x3f176d84	0.5915148
206	0x3ed45058	0.41467547
207	0x3d1009cc	0.035165593
208	0xbed34920	-0.41266727
209	0x3dd97a27	0.10619002
210	0x3ca9e17a	0.020737398
211	0xbe3e6b1b	-0.18595545
212	0x3e36ec22	0.17863515
213	0xbe05ae9d	-0.13054891
214	0x3d6eda5e	0.05831372
215	0xbf33a055	-0.7016652
216	0x3f59bc7a	0.8505322
217	0xbe8b823c	-0.27247798
218	0xbe881e79	-0.2658575
219	0xbdcbdd9f	-0.0995438
220	0xbeafe171	-0.34351686
221	0x3d0b3a83	0.033991348
222	0xbe0c1123	-0.13678412
223	0x3db13100	0.08651924
224	0x3dee1e56	0.1162688
225	0xbd89ef55	-0.06735102
226	0x3daa7b6e	0.083243236
227	0x3ecd7882	0.40131003
228	0xbd8a1398	-0.067420185
229	0x3ca8aed0	0.02059117
230	0xbe89ebcd	-0.26937714
231	0xbe8d7a27	-0.27632257
232	0xbd8b3c55	-0.06798617
233	0xbe5d6968	-0.2162224
234	0x3dc6009c	0.09668085
235	0x3cc2d040	0.023780942
236	0x3edbc8b4	0.42926562
237	0xbf3e4097	-0.74317306
238	0x3f5671ae	0.8376721
239	0xbe96678d	-0.29375878
240	0xbf1263e8	-0.57183695
241	0xbd18ad11	-0.037274424
242	0xbdf95e48	-0.12176186
243	0x3cc0f2cb	0.023553273
244	0x3dfc54c2	0.12320854
245	0xbdaa3ec6	-0.08312754
246	0xbdeddd11	-0.11614431
247	0x3e671f98	0.22570646
248	0xbe4a720e	-0.19770071
249	0xbe972ba7	-0.29525492
250	0xbee3531d	-0.44399348
251	0x3e8a4e21	0.27012733
252	0xbea3935c	-0.31948364
253	0xbe682f54	-0.22674304
254	0x3e9b7cee	0.3036875
255	0xbe5648a4	-0.20926148

attention.attention.0.bias f4 [33]
0	0xbe9881ef	-0.2978663
1	0x3ebb33cf	0.36562964
2	0xbe205af5	-0.15659697
3	0x3e75a17f	0.23987387
4	0xbe5cdb69	-0.21568073
5	0xbea9cb46	-0.33162898
6	0xbe17d108	-0.14825833
7	0x3e149eb6	0.14513668
8	0xbde86f02	-0.11349298
9	0x3eccd690	0.40007448
10	0xbe09ac08	-0.13444531
11	0xbcfd32ac	-0.030907951
12	0x3eb3d076	0.3511998
13	0x3ed6f0b4	0.41980517
14	0x3ea6185c	0.3244046
15	0xbea1bb3f	-0.3158817
16	0x3dfd5490	0.12369645
17	0xbe88db3d	-0.26729766
18	0x3d4f1376	0.05055567
19	0x3ece15ab	0.40250906
20	0xbd706a70	-0.058695257
21	0x3e1b97d2	0.15194634
22	0xbe88281d	-0.26593104
23	0xbeae04d8	-0.3398807
24	0x3e91359f	0.28361222
25	0xbe6f5e48	-0.23375809
26	0xbe6b0bc9	-0.22953714
27	0xbe795122	-0.24347356
28	0x3dccf6a0	0.100079775
29	0x3e96a1f5	0.29420438
30	0xbe79031c	-0.24317592
31	0xbbf97a96	-0.0076134903
32	0x3e32d5ad	0.17464323

attention.attention.2.weight f4 [66, 33]
0	0x3c43e41b	0.01195624
1	0x3f1d9343	0.6155283
2	0xbe080b8e	-0.13285658
3	0x3e8d2c42	0.2757283
4	0xbd399e76	-0.045317136
5	0x3e3727bc	0.17886251
6	0xbc52c19a	-0.012863541
7	0xbd54ea04	-0.051980987
8	0xbd2412b3	-0.040056895
9	0x3f29adf2	0.66281044
10	0x3dff2d50	0.124598145
11	0xbeced1ae	-0.40394348
12	0x3e81f26c	0.25380266
13	0x3ec01165	0.3751327
14	0x3ebbdfa9	0.36694077
15	0x3e280ca8	0.16411078
16	0x3e5773f9	0.21040334
17	0xbcea0938	-0.028568849
18	0x3e4b55d4	0.1985696
19	0x3f45b5ec	0.77230716
20	0xbda873c2	-0.08225204
21	0x3e48c2f5	0.1960562
22	0xbe06cd06	-0.13164148
23	0x3c8c8dfc	0.017157547
24	0x3ee37f75	0.4443318
25	0xbdcabc05	-0.09899143
26	0xbe7f6b47	-0.24943267
27	0xbe17ba63	-0.14817195
28	0x3e6278d1	0.221164
29	0x3d88588b	0.06657513
30	0xbf27e163	-0.6557829
31	0xbdad4a2f	-0.08461415
32	0x3e98fb07	0.2987902
33	0x3ca59917	0.0202146
34	0x3f3ab978	0.7293925
35	0xbebc8649	-0.368212
36	0x3e97a8dc	0.29621017
37	0x3d2458eb	0.04012386
38	0x3e6668ed	0.22500964
39	0xbec85682	-0.391285
40	0x3e3ae009	0.18249525
41	0x3e525fbd	0.20544334
42	0x3f120e61	0.5705319
43	0x3e082660	0.13295889
44	0xbe8d4af5	-0.2759625
45	0x3e11f2dd	0.14252801
46	0x3dbec7b3	0.09315433
47	0x3e94aad6	0.29036587
48	0xbe647aba	-0.22312441
49	0xbe9d3bc8	-0.30709672
50	0xbe7fcf1e	-0.24981353
51	0xbecd63ee	-0.40115303
52	0x3f6af81d	0.9178484
53	0xbeddf8cb	-0.43353876
54	0xbe1b5249	-0.15168108
55	0x3daffd76	0.08593266
56	0xbe3b4c3f	-0.18290804
57	0x3eb61fda	0.35571176
58	0xbe193382	-0.14961055
59	0xbe4a7ca9	-0.19774117
60	0x3dfb6c3e	0.12276505
61	0x3eaa9c0a	0.33322173
62	0x3e904119	0.28174666
63	0xbd7f850e	-0.06238275
64	0x3e06c18a	0.13159767
65	0x3e8bed10	0.27329302
66	0xbe2ffa4e	-0.17185327
67	0x3ea564e4	0.32303536
68	0xbe98f7c6	-0.29876536
69	0x3e89f347	0.26943418
70	0x3d588772	0.052863546
71	0xbd561f23	-0.052275788
72	0xbe9832b2	-0.29726177
73	0x3d5da991	0.05411679
74	0xbea4768e	-0.321217
75	0x3eb6d9fb	0.3571318
76	0x3d86a4d6	0.06574409
77	0xbe975747	-0.29558775
78	0x3d4b7490	0.04967171
79	0x3e887c6c	0.26657426
80	0x3f10be54	0.5654042
81	0xbdedd78a	-0.116133764
82	0x3e31278c	0.17300242
83	0xbde58329	-0.112066574
84	0x3d64d9e1	0.055871848
85	0x3ee6606b	0.44995436
86	0xbde86aba	-0.113484815
87	0xbd24db1f	-0.040248033
88	0xbe3d0910	-0.18460488
89	0xbe3ed294	-0.18635017
90	0x3f0d28bb	0.55140275
91	0xbd49f6be	-0.049307577
92	0xbe88f38f	-0.2674832
93	0xbe2aed15	-0.16692002
94	0x3dc892e4	0.09793642
95	0x3e2cbc35	0.1686867
96	0xbee4648a	-0.44607955
97	0x3e0da206	0.13831338
98	0xbe0093c1	-0.12556364
99	0xbcfdaed1	-0.030967148
100	0x3e98fdda	0.29881173
101	0xbed76c27	-0.420747
102	0x3e816129	0.2526944
103	0xbec0df55	-0.3767039
104	0xbe03f5d9	-0.12886752
105	0xbe2317d6	-0.15927061
106	0xbe08aede	-0.13347957
107	0xbed8d96b	-0.42353377
108	0x3ef45de8	0.47727895
109	0x3e2588b9	0.16165437
110	0xbdc1bc31	-0.09459723
111	0x3e183f71	0.14867951
112	0x3dfe2f39	0.12411351
113	0x3ebd1f43	0.36937913
114	0xbc07031f	-0.00824049
115	0xbccd63cb	-0.025071999
116	0x3d1cf823	0.03832258
117	0x3d4c0dbd	0.04981779
118	0x3e713794	0.23556358
119	0x3e204fa0	0.15655375
120	0x3e301bad	0.17198057
121	0xbe28c384	-0.16480833
122	0xbd9ca1eb	-0.07648071
123	0x3ef23e01	0.4731293
124	0xbe45479c	-0.19265598
125	0xbe244fca	-0.16046062
126	0xbe15b821	-0.14621021
127	0x3e159b00	0.14609909
128	0x3e615b54	0.22007495
129	0xbf0ed7a3	-0.55797786
130	0xbe5b0c08	-0.21391308
131	0xbcb481f9	-0.022034632
132	0xbd811d81	-0.063044555
133	0xbf04a3b6	-0.51812303
134	0xbebc5a45	-0.3678762
135	0xbea0fdfb	-0.31443772
136	0xbe9e7cbc	-0.3095454
137	0x3e84f67c	0.25969303
138	0x3d07db07	0.033167865
139	0xbe716db5	-0.23577006
140	0xbe4e1a30	-0.20127177
141	0xbe4299a1	-0.19003917
142	0x3ed500d5	0.41602197
143	0xbe548c3f	-0.20756625
144	0x3ed030e9	0.40662315
145	0x3ed004a6	0.40628546
146	0x3ead6a9a	0.33870393
147	0x3e4e6d84	0.20158964
148	0x3f2254db	0.6341073
149	0x3eb70714	0.35747588
150	0x3dd7e74c	0.10542163
151	0xbee8a8a1	-0.45441154
152	0x3eedf0f7	0.46472904
153	0xbe02c988	-0.1277219
154	0xbe90814c	-0.28223646
155	0x3e71a592	0.23598316
156	0x3c247ada	0.010039056
157	0xbeb64a07	-0.35603353
158	0x3e7fe888	0.24991047
159	0xbe23e48b	-0.16005151
160	0xbec44453	-0.38333377
161	0xbefa52b5	-0.48891225
162	0x3bc65b3f	0.006053358
163	0xbdd565ca	-0.10419805
164	0x3da45e0c	0.080257505
165	0x3ca693bd	0.020334119
166	0xbeca68a4	-0.3953296
167	0xbd01274c	-0.031531617
168	0x3e4e70a0	0.2016015
169	0x3dced6e8	0.10099584
170	0x3e76e871	0.24112107
171	0xbe4070b3	-0.18792991
172	0x3ce4e51d	0.027941281
173	0x3f426063	0.75928324
174	0xbf572b1e	-0.84050167
175	0x3e1d8eb4	0.15386468
176	0x3efcae20	0.49351597
177	0xbe684e8e	-0.22686216
178	0xbd27219d	-0.04080354
179	0xbe02c43d	-0.12770171
180	0x3d337434	0.04381199
181	0xbe3d3760	-0.18478155
182	0xbd075e76	-0.03304907
183	0x3d99ee6e	0.0751618
184	0xbef40246	-0.47657984
185	0x3d83e63a	0.064403966
186	0x3eaa4c61	0.33261397
187	0xbe2d83a3	-0.16944747
188	0x3d9715cc	0.07377204
189	0xbe9d1481	-0.30679706
190	0x3eb9177a	0.36150724
191	0xbdc7db79	-0.09758658
192	0x3f07c698	0.53037405
193	0xbef7422c	-0.48292673
194	0xbedc1aa9	-0.4298909
195	0x3ee29693	0.44255504
196	0xbf0b466a	-0.5440432
197	0x3ca42607	0.020037664
198	0x3b92bcf1	0.00447809
199	0x3ec5f594	0.38663924
200	0x3e46081f	0.19339035
201	0x3f095fa7	0.5366158
202	0xbe3a813f	-0.18213366
203	0xbdbf8bb2	-0.09352817
204	0x3c88c1c7	0.016693963
205	0xbe7b1d8c	-0.2452299
206	0x3f63aee5	0.8893874
207	0x3f02e123	0.5112478
208	0x3e193424	0.14961296
209	0xbf2fb4bb	-0.6863515
210	0xbc0cc6db	-0.008592333
211	0xbdd7ee08	-0.10543448
212	0xbe49e9d8	-0.1971811
213	0xbe494015	-0.19653352
214	0x3d2d3815	0.042289812
215	0xbea50b4b	-0.32235178
216	0xbe9e5710	-0.30925798
217	0xbf14f4aa	-0.5818583
218	0xbed3d350	-0.41372156
219	0x3f91fd8b	1.14055
220	0x3e134651	0.14382292
221	0xbe204769	-0.15652241
222	0x3e8b987e	0.2726478
223	0x3c31fed8	0.010863982
224	0xbc320047	-0.010864324
225	0x3e5ff5ff	0.21871184
226	0x3ee59a06	0.44844073
227	0x3eda4307	0.42629263
228	0x3e14e3f6	0.14540085
229	0x3dfffc54	0.124993
230	0x3d9e39fc	0.077259034
231	0x3ee61264	0.44935906
232	0x3e581057	0.21099983
233	0x3ead9b36	0.3390748
234	0xbd623feb	-0.05523674
235	0x3e12071f	0.14260529
236	0xbc80e7a8	-0.015735462
237	0x3efe4659	0.49663046
238	0x3e1b373e	0.15157792
239	0xbd198242	-0.03747774
240	0xbe5e1e6b	-0.21691291
241	0x3e89a814	0.26886046
242	0x3ee9c2d1	0.45656446
243	0xbeaa9e68	-0.3332398
244	0xbeb88975	-0.3604237
245	0xbdb2b96c	-0.08726773
246	0xbda24e22	-0.07925059
247	0x3e72a665	0.23696287
248	0xbd90d982	-0.07072736
249	0xbe267317	-0.16254841
250	0x3f2d385d	0.6766413
251	0x3d1dd5d7	0.03853401
252	0xbe7f743d	-0.24946685
253	0x3db7828b	0.08960446
254	0xbea27402	-0.31729132
255	0xbeb464ee	-0.35233253

attention.attention.2.bias f4 [66]
0	0x3ebc5916	0.36786717
1	0x3edfe72c	0.43731058
2	0x3ecb9088	0.39758706
3	0x3ee87022	0.4539805
4	0x3e5aa065	0.21350248
5	0xbc3162ea	-0.010826806
6	0x3ca407d0	0.020023257
7	0xbe84fc0d	-0.2597355
8	0xbf019754	-0.50621533
9	0xbe779cd1	-0.24180914
10	0xbe902d7e	-0.28159708
11	0x3d0551f4	0.03254886
12	0x3d972962	0.0738094
13	0x3c234a99	0.009966516
14	0x3c234a99	0.009966516
15	0x3c234a99	0.009966516
16	0x3c4441da	0.011978591
17	0x3e50cf2f	0.20391534
18	0xbecd27c9	-0.40069416
19	0xbe8ac184	-0.27100766
20	0xbdf957f4	-0.12174979
21	0x3c234a99	0.009966516
22	0x3ee0086c	0.43756425
23	0x3ec15f14	0.3776785
24	0x3f15f8c0	0.5858269
25	0x3dc9e52b	0.098581634
26	0x3de819e2	0.11333062
27	0xbd0dc6ee	-0.034613542
28	0x3c725e8c	0.01479305
29	0xbee9748a	-0.45596725
30	0xbf13ddeb	-0.57760495
31	0x3f0a41e7	0.5400681
32	0x3e3108a6	0.17288455
33	0x3d2672a2	0.040636666
34	0xbdf84eae	-0.12124382
35	0x3c234a99	0.009966516
36	0x3c234a99	0.009966516
37	0x3c234a99	0.009966516
38	0x3f328719	0.6973739
39	0x3e6eeeb2	0.23333243
40	0xbe355c81	-0.17711069
41	0xbe8084c4	-0.25101292
42	0xbe5e0140	-0.21680164
43	0x3c234a99	0.009966516
44	0xbe89e37c	-0.2693137
45	0xbe1d9ccd	-0.15391846
46	0xbe8d0c67	-0.27548525
47	0xbeaeabe8	-0.3411553
48	0x3e78aa8a	0.24283805
49	0x3cb4cb28	0.022069529
50	0xbd85c17c	-0.06531045
51	0xbeda8780	-0.42681503
52	0x3e830050	0.25586176
53	0x3ec2f8ed	0.3808054
54	0xbe08d44b	-0.13362233
55	0xbe799f28	-0.2437712
56	0xbe5f4a39	-0.21805657
57	0x3c234a99	0.009966516
58	0x3c234a99	0.009966516
59	0x3c234a99	0.009966516
60	0x3ebd5e50	0.36986017
61	0x3c0a54ca	0.008443067
62	0x3d83eef1	0.06442059
63	0xbe59305e	-0.21209857
64	0xbe17c8d0	-0.14822698
65	0x3c234a99	0.009966516

input_layer.0.weight f4 [128, 66]
0	0x3da817d5	0.082076706
1	0xbd60a86a	-0.054848112
2	0xbe87c2b7	-0.26515743
3	0x3da81ba2	0.082083955
4	0xbf118a88	-0.56852007
5	0xbe789793	-0.24276571
6	0xbcbe2242	-0.023209695
7	0x3d98f0e9	0.07467825
8	0x3e11c7b1	0.14236332
9	0xbb1f1ada	-0.002427748
10	0x3d5736b1	0.052542392
11	0x3d11e076	0.035614453
12	0x3f49aee6	0.787825
13	0x3d03ed1e	0.032208554
14	0x3dd3b309	0.103368826
15	0x3d09c962	0.03363932
16	0x3d9da17a	0.07696815
17	0xbe77e160	-0.24207067
18	0x3c059746	0.008153742
19	0xbdd5be1a	-0.104366496
20	0x3dbb4395	0.091437496
21	0x3db25975	0.08708469
22	0xbdc3ce20	-0.095607996
23	0x3e83e4e3	0.25760564
24	0x3b8e240c	0.004337793
25	0x3e85579c	0.26043403
26	0xbeaef022	-0.34167582
27	0x3dece70f	0.115675084
28	0x3d258052	0.04040558
29	0x3e449057	0.19195686
30	0x3d57c116	0.052674375
31	0x3d040c0b	0.032238048
32	0xbdc18f36	-0.094511434
33	0xbc186a4c	-0.009302687
34	0x3ef7085f	0.48248574
35	0xbe245972	-0.16049746
36	0xbe002482	-0.12513927
37	0xbcdf2511	-0.027239354
38	0x3f1b2554	0.60603833
39	0xbf47c31c	-0.7803209
40	0xbe9d587f	-0.3073158
41	0xbd5bed47	-0.053693082
42	0x3dde8f23	0.10867145
43	0x3d404d4c	0.046948716
44	0x3d89cef4	0.06728926
45	0x3d899efd	0.06719778
46	0xbdba104f	-0.09085142
47	0xbbc69c19	-0.0060610888
48	0xbee06612	-0.43827873
49	0x3e40203c	0.18762296
50	0xbcaded4b	-0.021231314
51	0xbe1cbfd6	-0.15307555
52	0xbe99c8a1	-0.3003588
53	0x3ea505f6	0.3223111
54	0x3df9d2e4	0.12198427
55	0xbd7c2904	-0.061562553
56	0x3d6c3cda	0.05767522
57	0x3da9839f	0.08277058
58	0x3d9546c7	0.0728889
59	0xbdef8e32	-0.116970435
60	0x3f3a381f	0.72741884
61	0xbf1f825f	-0.62308306
62	0xbd996d82	-0.0749159
63	0x3e89b1c3	0.26893434
64	0x3ddd9374	0.1081914
65	0x3cfffe55	0.031249205
66	0xbeea2e79	-0.4573858
67	0xbf292afe	-0.66081226
68	0xbede0180	-0.4336052
69	0xbf5b16c6	-0.85581625
70	0xbedb39d1	-0.42817548
71	0xbe860518	-0.2617576
72	0x3d7f4c01	0.062328342
73	0xbc27f3ab	-0.010250966
74	0xbe071a22	-0.13193563
75	0x3e8508ca	0.25983268
76	0x3e8dc3b4	0.27688372
77	0x3f1ccd46	0.6125072
78	0xbd1f0660	-0.03882444
79	0x3d8fe74f	0.070265405
80	0x3e1a49c5	0.15067203
81	0x3e2fd597	0.17171322
82	0xbeb65876	-0.35614365
83	0xbe8f14d3	-0.27945575
84	0x3e325867	0.17416535
85	0xbd4baedd	-0.04972731
86	0x3e4a0d02	0.19731525
87	0x3dcbc835	0.09950296
88	0xbf0f36df	-0.559431
89	0xbf157397	-0.583795
90	0xbf5a06ac	-0.8516643
91	0xbf4686b9	-0.7754932
92	0xbc9afa5f	-0.018918214
93	0x3da0abeb	0.07845291
94	0xbd30ea06	-0.043191932
95	0xbea5abbc	-0.32357585
96	0x3d537cb3	0.051632594
97	0xbe5d3770	-0.21603179
98	0x3cfe7f01	0.03106642
99	0x3f1ddc64	0.61664414
100	0x3dc97a06	0.09837727
101	0xbe1be901	-0.15225603
102	0xbd13b721	-0.036063317
103	0xbdd10d46	-0.1020761
104	0xbe86f142	-0.2635594
105	0xbe8b6559	-0.2722576
106	0xbdae6ca8	-0.08516818
107	0xbd2d4432	-0.042301364
108	0xb96032ee	-0.00021381277
109	0xbd4d72ad	-0.05015819
110	0xbefa4cb7	-0.48886654
111	0xbecff47f	-0.40616223
112	0xbd8d53c8	-0.06900746
113	0xbebd8f52	-0.37023407
114	0x3e258e7f	0.16167639
115	0x3dda7746	0.10667281
116	0x3cdb9dac	0.026808582
117	0x3d98b68c	0.07456693
118	0x3f03ba81	0.5145646
119	0xbf102b90	-0.5631647
120	0x3f20efa4	0.6286566
121	0x3dcbfe5b	0.09960624
122	0x3def2d0c	0.11678514
123	0x3e170621	0.14748432
124	0x3d9ed49c	0.07755396
125	0x3dd7584d	0.10514889
126	0xbe034bc5	-0.12821873
127	0xbe0547b1	-0.1301563
128	0x3d81a4e7	0.06330281
129	0xbe7c3f5d	-0.24633546
130	0x3dff52b3	0.124669455
131	0x3e2b700f	0.16741966
132	0x3d31fc3c	0.04345344
133	0x3e7741e4	0.24146229
134	0x3ca3c853	0.019992983
135	0xbe344855	-0.17605717
136	0xbe86eed2	-0.2635408
137	0xbbf7a648	-0.007557664
138	0x3e020b67	0.12699662
139	0x3e39f325	0.18159159
140	0xbd69e062	-0.057098754
141	0x3efded25	0.4959499
142	0x3ddb55e5	0.107097425
143	0xbe69ce33	-0.22832565
144	0xbe96e8df	-0.29474542
145	0x3d6f32f0	0.058398187
146	0x3e0d207d	0.13781925
147	0x3dffc8da	0.12489481
148	0xbec38daf	-0.38194034
149	0x3ec0ef55	0.37682596
150	0x3e26e193	0.16296987
151	0xbe1ab495	-0.15107949
152	0x3efcc057	0.49365494
153	0xbd840dbf	-0.06447934
154	0x3e335e31	0.175164
155	0xbe793d01	-0.24339677
156	0xbe1c4cb2	-0.15263632
157	0xbeaede42	-0.34153944
158	0xbeb4238e	-0.35183376
159	0x3defc66f	0.1170777
160	0x3e247b05	0.16062553
161	0xbe095fb3	-0.13415413
162	0xbd8f2197	-0.06988829
163	0x3e0509bc	0.12991995
164	0x3ee59e07	0.44847128
165	0x3df8798d	0.12132559
166	0xbe7c40da	-0.24634114
167	0x3e320585	0.17384918
168	0xbd7d5cf6	-0.061856233
169	0xbc74855d	-0.014924374
170	0xbeb8a0e1	-0.3606024
171	0x3f35c5ca	0.7100493
172	0x3de0037f	0.10938167
173	0xbed84102	-0.42237097
174	0x3e183934	0.14865571
175	0xbe0c4c85	-0.13701065
176	0xbe92f563	-0.2870284
177	0xbee808d2	-0.4531923
178	0xbe811ab3	-0.25215682
179	0xbeda22a5	-0.42604557
180	0xbe20bdd9	-0.15697421
181	0x3c629bea	0.013831118
182	0xbe0eea25	-0.13956507
183	0x3e0324d1	0.12807013
184	0xbe8af1fa	-0.27137738
185	0x3ee4c4e5	0.4468147
186	0x3e9b79f1	0.3036647
187	0x3c717006	0.014736181
188	0xbe85ad28	-0.2610867
189	0x3d0acdc1	0.03388763
190	0x3dccc005	0.09997562
191	0xbd2b7757	-0.04186186
192	0xbefa27f5	-0.4885861
193	0x3cb1c91b	0.02170234
194	0x3ef4aa13	0.47786006
195	0x3d46270c	0.04837708
196	0x3e25762e	0.16158363
197	0x3e1e27d0	0.15444875
198	0xbf248113	-0.6425945
199	0xbf28abb2	-0.65886986
200	0xbf1ef892	-0.6209804
201	0xbf68c905	-0.9093173
202	0xbeaf9cee	-0.34299415
203	0x3e70a70f	0.23501228
204	0x3d0d4362	0.03448809
205	0xbf3ca91a	-0.7369553
206	0xbeca4228	-0.39503598
207	0x3efcd669	0.49382332
208	0xbd6ed444	-0.0583079
209	0xbc7e9427	-0.015538252
210	0xbe25e5f6	-0.16201004
211	0xbda7afac	-0.081878036
212	0x3d1f62c0	0.038912535
213	0x3ca50f75	0.020148972
214	0xbecb0581	-0.39652637
215	0xbe83663b	-0.25663933
216	0x3e3a9023	0.18219046
217	0x3b64da37	0.0034920105
218	0xbe26cc37	-0.1628884
219	0xbd588e69	-0.052870188
220	0xbf37a1b3	-0.7173111
221	0xbf198a61	-0.59976774
222	0xbf42439b	-0.7588441
223	0xbf1cdeef	-0.6127767
224	0xbeb4bf67	-0.35302278
225	0x3ec05d50	0.37571192
226	0x3e40ab13	0.1881526
227	0xbf0580e1	-0.5214978
228	0x3c828e19	0.015936898
229	0x3d51c61c	0.051214322
230	0x3d1ae4c0	0.03781581
231	0x3e477307	0.19477473
232	0xbe2592b6	-0.16169247
233	0xbd125573	-0.035726022
234	0x3d9ee1b0	0.0775789
235	0x3d64ff82	0.055907734
236	0xbeb7ffb5	-0.35937276
237	0xbee86320	-0.45388126
238	0x3ec088a7	0.37604257
239	0xbde5fdf9	-0.11230082
240	0x3d5a4988	0.05329278
241	0x3d6e8164	0.058228865
242	0xbe149992	-0.14511707
243	0xbd90f10e	-0.070772275
244	0xbe0b8e03	-0.13628392
245	0xbe675638	-0.22591484
246	0xbdbf1a31	-0.093311675
247	0x3e40c6f0	0.18825889
248	0x3d8e88ee	0.06959711
249	0xbc82260f	-0.015887288
250	0x3d286371	0.04111046
251	0x3e2097b6	0.15682873
252	0x3e836e4a	0.2567008
253	0xbd79dc46	-0.061001085
254	0xbe84f9ea	-0.2597192
255	0x3e1e2eba	0.15447512

input_layer.0.bias f4 [128]
0	0x3d07e671	0.03317875
1	0xbd93fe58	-0.072262466
2	0x3c87b565	0.016565988
3	0x3dcf80bd	0.10131977
4	0xbc11b315	-0.008892794
5	0x3dbb1ec0	0.091367245
6	0x3ded1af4	0.115774065
7	0xbcf80888	-0.030277506
8	0xbc0c61cb	-0.008568238
9	0x3e3c5c64	0.18394619
10	0xbc6fe97a	-0.0146430675
11	0x3d294f8d	0.04133563
12	0xbc988a58	-0.018620655
13	0x3c2756f5	0.010213603
14	0x3c6610f8	0.014042132
15	0xbc00f44d	-0.007870746
16	0x3dadf713	0.08494391
17	0x3dab13de	0.08353399
18	0x3dd1338e	0.102149114
19	0x3d4a1850	0.049339592
20	0x3d80fa6d	0.06297765
21	0xbcd3fec4	-0.025878318
22	0x3cd2f7fe	0.025753018
23	0xbd9a1985	-0.07524399
24	0xbd604e42	-0.054762132
25	0x3ccada7c	0.024762385
26	0x3af85632	0.0018946587
27	0x3c8db6ff	0.017299173
28	0x3c73278d	0.014840973
29	0x3ce95d8c	0.02848699
30	0x3c96690c	0.018360637
31	0x3c08aad4	0.00834151
32	0xbc989530	-0.018625826
33	0x3dd16a15	0.10225312
34	0xbc2ba59a	-0.010476494
35	0xbcd9d78f	-0.026592044
36	0x3df13329	0.11777336
37	0xbc15362d	-0.009107155
38	0xbdca811a	-0.098879054
39	0xbd8cb9a6	-0.06871347
40	0x3ba8040e	0.0051274365
41	0xbd86861b	-0.06568547
42	0xbcf8ecc1	-0.03038633
43	0x3d057d3b	0.032590132
44	0x3e46d596	0.19417414
45	0xbd125570	-0.03572601
46	0xbd0931a8	-0.03349462
47	0x3cae2b5d	0.021260912
48	0x3cde5b29	0.027143078
49	0x3d5da01f	0.05410778
50	0x3c485304	0.012226824
51	0x3dac399a	0.08409424
52	0x3d0ba63d	0.034094084
53	0x3bcf2ded	0.0063226135
54	0x3d260048	0.040527612
55	0xbd6d27f3	-0.057899427
56	0x3cb55796	0.02213649
57	0xbca8b749	-0.02059521
58	0x3bbb2025	0.005710619
59	0xbd20a70a	-0.0392218
60	0x3ca847e4	0.020542093
61	0x3da5789a	0.080796435
62	0x3c83cb75	0.016088227
63	0x3d808b7a	0.06276603
64	0xbd8f2faa	-0.06991513
65	0x3c63ded0	0.013908103
66	0xbd56facc	-0.052485272
67	0x3cae092c	0.021244608
68	0xbab85505	-0.0014063424
69	0xbcae15b7	-0.021250589
70	0x3d510d56	0.05103811
71	0x3d069daf	0.032865223
72	0x3e0f1519	0.13972892
73	0xbda0c79b	-0.07850572
74	0xb7866fd4	-1.6026119e-05
75	0xbcbbb84e	-0.022915032
76	0xbce9766f	-0.028498856
77	0x3dece6d3	0.11567464
78	0x3c31e81e	0.010858564
79	0x3d35b645	0.04436328
80	0xbc79371f	-0.015210896
81	0x3c04dd3c	0.008109387
82	0x3b0cb62f	0.0021470895
83	0x3d3bcbcc	0.045848653
84	0xbd09557e	-0.033528797
85	0xbb82cca9	-0.0039916825
86	0x3d1d44ce	0.038395695
87	0x3d12d6ec	0.035849497
88	0xbbe91ac6	-0.0071137873
89	0x3cd6d176	0.026222926
90	0xbc728706	-0.0148027
91	0xbd7f2a5e	-0.062296264
92	0xbd1cf97c	-0.038323864
93	0xbd23d79c	-0.040000543
94	0x3d22f2e0	0.039782405
95	0x3d7c6996	0.061624132
96	0xbdf83cd5	-0.12120978
97	0x3debd091	0.1151439
98	0xbd748fae	-0.059707336
99	0x3d21fa4a	0.039545335
100	0x3ca9225c	0.020646267
101	0xbd37de38	-0.04488966
102	0x3c8db6cc	0.017299078
103	0x3d7bb0e5	0.061447997
104	0xbca9b9fb	-0.020718565
105	0xbcc5e0f7	-0.024155123
106	0xbbb0940a	-0.0053887414
107	0x3b334e9f	0.0027360094
108	0xbd12e073	-0.035858583
109	0xbc2d2529	-0.010567942
110	0xbc27d8c6	-0.010244554
111	0xbba7d9e9	-0.0051224125
112	0x3d98998f	0.07451164
113	0x3cd2380e	0.025661495
114	0xb826209e	-3.960786e-05
115	0x3d4b74ac	0.049671814
116	0x3cc0184d	0.023449088
117	0xbd3dd0cb	-0.0463417
118	0x3d860d44	0.06545499
119	0x3d1a66b0	0.037695587
120	0x3c03ab03	0.008036378
121	0x3d648a74	0.0557961
122	0xbc90b98a	-0.017666597
123	0xbca96238	-0.020676717
124	0xbcd7ea5b	-0.026356867
125	0x3d3f5dce	0.04672032
126	0xbc977437	-0.018488033
127	0xbc95c91c	-0.018284373

input_layer.1.weight f4 [128]
0	0x3f5e50f1	0.86842257
1	0x3fb03950	1.376749
2	0x3f9b7ecc	1.214807
3	0x3f8cf5d6	1.1012523
4	0x3f95125f	1.1646231
5	0x3f53fa9b	0.8280427
6	0x3f7c848c	0.9863975
7	0x3f5d9a67	0.86563724
8	0x3f43ad3c	0.7643621
9	0x3f99b733	1.2009033
10	0x3f86503d	1.0493237
11	0x3f7cf5b2	0.988124
12	0x3f89bd20	1.0760841
13	0x3f7fdcb9	0.9994617
14	0x3f4c613b	0.7983586
15	0x3f901e9b	1.125934
16	0x3f57b068	0.8425355
17	0x3fdcdd32	1.7255003
18	0x3f896f82	1.0737154
19	0x3f9b3f2c	1.2128654
20	0x3f4d9aa2	0.80314076
21	0x3f9acd98	1.2093992
22	0x3f72cd3e	0.94844425
23	0x3f844232	1.0332701
24	0x3fc9cece	1.5766237
25	0x3f688087	0.9082112
26	0x3f9d3390	1.2281361
27	0x3f97707d	1.1831204
28	0x3f5e1c43	0.86761874
29	0x3f89e2eb	1.0772375
30	0x3f33aa32	0.7018157
31	0x3f27d245	0.6555522
32	0x3f9391d4	1.1528878
33	0x3f8ed2e6	1.1158111
34	0x3fa45635	1.2838808
35	0x3f90b328	1.1304674
36	0x3fa63343	1.2984394
37	0x3f795acb	0.97404164
38	0x3fac492b	1.3459829
39	0x3f811517	1.0084561
40	0x3f8fac50	1.1224461
41	0x3f60f923	0.8788015
42	0x3f9b6a29	1.2141773
43	0x3f419a36	0.7562593
44	0x3f97f532	1.1871703
45	0x3f7222bb	0.94584244
46	0x3f61d974	0.8822243
47	0x3f8c05ee	1.093931
48	0x3f970e1e	1.1801183
49	0x3f6c4220	0.922884
50	0x3f7b0d3c	0.9806707
51	0x3f962c87	1.1732339
52	0x3f60bde4	0.8778975
53	0x3f8c8efb	1.0981134
54	0x3f97789b	1.1833681
55	0x3fa94432	1.3223937
56	0x3f8cd6eb	1.1003088
57	0x3f8551ef	1.0415629
58	0x3f62d54a	0.88606703
59	0x3f8f5bab	1.119985
60	0x3f856f93	1.0424675
61	0x3f8b586d	1.088636
62	0x3f9c06a6	1.2189529
63	0x3f9d18d7	1.2273206
64	0x3f8ebbcc	1.1151061
65	0x3f457859	0.7713676
66	0x3fab3ffd	1.3378903
67	0x3f835df6	1.026305
68	0x3f86ceb7	1.0531834
69	0x3fd177a6	1.6364639
70	0x3f7a10df	0.97681993
71	0x3f80740a	1.0035412
72	0x3fa5e190	1.2959461
73	0x3f9075f4	1.1285996
74	0x3f3362bb	0.70072526
75	0x3f9d49d1	1.2288152
76	0x3f8e25c8	1.110528
77	0x3f8f1b78	1.1180258
78	0x3fc5d3c5	1.5455252
79	0x3fb04d50	1.3773594
80	0x3f3c158d	0.73470384
81	0x3fae3ca9	1.3612262
82	0x3f64adce	0.89327705
83	0x3f51a500	0.81892395
84	0x3f9b5fa4	1.2138562
85	0x3f903358	1.1265669
86	0x3f802463	1.0011104
87	0x3f469f88	0.77587175
88	0x3f2cc163	0.67482585
89	0x3fb66c1b	1.4251741
90	0x3f8acc98	1.0843687
91	0x3f94c231	1.1621763
92	0x3f848ea5	1.0356032
93	0x3f82f6e6	1.0231597
94	0x3f982683	1.1886753
95	0x3f81c0e1	1.0136987
96	0x3f846341	1.034279
97	0x3fa079af	1.2537135
98	0x3fd3c16b	1.6543401
99	0x3f97946f	1.1842173
100	0x3f9b1600	1.2116089
101	0x3f86c0d3	1.0527595
102	0x3f54f8e0	0.83192253
103	0x3f9ef090	1.2417164
104	0x3fa35fc9	1.2763606
105	0x3fa123fa	1.2589104
106	0x3f2c3268	0.67264414
107	0x3f57dc60	0.8432064
108	0x3fbf82d5	1.4961802
109	0x3f1de724	0.6168082
110	0x3f91792f	1.1365107
111	0x3fa0884d	1.2541596
112	0x3fba6561	1.4562188
113	0x3fb722fb	1.430755
114	0x3f691591	0.9104853
115	0x3f37e96e	0.7184056
116	0x3f8bf67f	1.09346
117	0x3f87c0ec	1.060575
118	0x3f5f08bc	0.871227
119	0x3f291964	0.6605437
120	0x3f6f6721	0.9351674
121	0x3f638223	0.8887045
122	0x3f414ce8	0.75507975
123	0x3f71deeb	0.9448077
124	0x3f8f57f4	1.1198716
125	0x3f86f738	1.0544195
126	0x3f2ad4f1	0.6673117
127	0x3f61158c	0.879235

input_layer.1.bias f4 [128]
0	0xbf21e3df	-0.6323833
1	0xbec93958	-0.39301562
2	0xbe4123ba	-0.18861285
3	0xbe84b2ed	-0.2591776
4	0xbdd51fea	-0.10406478
5	0xbe74ff7c	-0.23925585
6	0xbee6f5ee	-0.45109504
7	0xbefba709	-0.49150875
8	0xbe99d18f	-0.30042693
9	0xbe42f4fc	-0.19038767
10	0x3d7b86d5	0.061407883
11	0xbf0ebade	-0.55753887
12	0xbeb59695	-0.35466447
13	0xbf3878ac	-0.7205913
14	0xbea103fd	-0.31448355
15	0xbcf5fe94	-0.030028619
16	0xbf01d953	-0.50722235
17	0xbea33340	-0.31875038
18	0x3e896fbb	0.26843056
19	0xbe64cef2	-0.22344568
20	0xbeeec36b	-0.46633467
21	0xbebdc71a	-0.37065965
22	0xbde4621d	-0.11151526
23	0xbec4aa05	-0.38410965
24	0xbda35b0b	-0.079763494
25	0x3c135fcc	0.008995008
26	0xbe93ec2f	-0.2889113
27	0xbee5f2aa	-0.449117
28	0xbe4065b1	-0.18788792
29	0xbefdf0ac	-0.4959768
30	0x3aad11d5	0.0013204167
31	0xbe081a2c	-0.13291234
32	0xbebb5938	-0.36591506
33	0xbf653129	-0.8952814
34	0xbd91e79b	-0.07124253
35	0xbef0c8a5	-0.4702808
36	0xbec5f142	-0.38660628
37	0xbe0636ca	-0.13106838
38	0xbcab6599	-0.020922469
39	0xbe2092d5	-0.15681012
40	0xbe6f11e6	-0.23346671
41	0xbde1a9c1	-0.11018706
42	0xbf154c91	-0.58319956
43	0xbea7937c	-0.3272971
44	0xbf02a2f6	-0.5102991
45	0xbdafffd5	-0.08593718
46	0xbde5071f	-0.11182999
47	0xbf0b9597	-0.5452513
48	0xbef14a48	-0.47126985
49	0xbe9f09a7	-0.31062052
50	0xbe9d03c5	-0.30666938
51	0x3c9d963f	0.019236682
52	0xbe2219d1	-0.1583016
53	0xbf08a633	-0.533786
54	0xbe885b00	-0.26631927
55	0xbe86df7f	-0.2634239
56	0xbee7ed96	-0.4529845
57	0xbf099da9	-0.53756195
58	0xbe2a2be2	-0.16618302
59	0xbcd89f23	-0.02644307
60	0xbeb098f6	-0.344917
61	0x3dc2cc67	0.09511643
62	0xbee2af21	-0.44274238
63	0xbd550cb1	-0.052014057
64	0xbf1fbfe1	-0.6240216
65	0xbe84c080	-0.25928116
66	0xbe68f603	-0.22750096
67	0xbbd5d6ca	-0.006525849
68	0xbe3e9798	-0.18612516
69	0x3db5a377	0.08869069
70	0xbf16e49a	-0.5894257
71	0xbd5ab93a	-0.053399302
72	0xbf23486a	-0.6378237
73	0xbe5f41f8	-0.21802509
74	0xbf257adb	-0.6464059
75	0xbe9e1fba	-0.3088358
76	0xbf25b001	-0.64721686
77	0xbe9b78c3	-0.3036557
78	0xbeaae4b2	-0.33377606
79	0xbf047520	-0.5174122
80	0xbd9b1496	-0.07572286
81	0xbe2d5331	-0.16926266
82	0xbe94ee44	-0.29088032
83	0xbcb8bead	-0.022551859
84	0xbeb1d21c	-0.34730613
85	0xbe6fcca3	-0.23417906
86	0xbdb96719	-0.090528674
87	0xbf0e4a06	-0.555817
88	0xbec2e57f	-0.38065717
89	0x3c6123cb	0.013741444
90	0xbf22462c	-0.63388324
91	0xbe9c8bec	-0.30575502
92	0xbf220780	-0.63292694
93	0xbf4f23d7	-0.8091406
94	0xbf187ce3	-0.5956556
95	0xbe846870	-0.2586093
96	0xbdf80fa1	-0.12112356
97	0xbf81d8d3	-1.0144295
98	0xbd454055	-0.048157055
99	0xbea90fc6	-0.33019847
100	0xbf5337d8	-0.82507086
101	0xbd3b599a	-0.045739748
102	0xbebafe89	-0.3652232
103	0xbece07eb	-0.40240416
104	0xbebced03	-0.36899576
105	0xbf4e1f33	-0.80516356
106	0xbee3ed45	-0.4451696
107	0xbe66b43c	-0.22529691
108	0x3dd7f8bf	0.105454914
109	0xbeac8bd2	-0.33700424
110	0xbe7d0cd3	-0.24711923
111	0xbea8f11f	-0.3299646
112	0xbf0266f6	-0.50938356
113	0xbe0f63fc	-0.14002985
114	0xbecc95ce	-0.39958042
115	0xbe1dd1bb	-0.15412037
116	0xbe2beb17	-0.16788898
117	0xbea6e1b6	-0.3259408
118	0xbe6fe81c	-0.23428386
119	0xbf0b9f19	-0.5453964
120	0xbe9bc705	-0.30425277
121	0xbcecd068	-0.02890797
122	0x3d9d3fcf	0.07678186
123	0xbf37fe95	-0.71872836
124	0xbeb6284e	-0.35577625
125	0xbea96f44	-0.330927
126	0xbebd5487	-0.36978552
127	0xbd9e1485	-0.077187575

input_layer.1.running_mean f4 [128]
0	0x3e33e51b	0.17567866
1	0xbfc4d89c	-1.5378604
2	0x3e88bbd6	0.26705807
3	0xbfb823a4	-1.4385877
4	0x3e19b4fa	0.15010443
5	0x3f744bec	0.9542835
6	0xbf46d955	-0.7767537
7	0x3ead0606	0.33793658
8	0xbeeaeb64	-0.45882714
9	0xbf3701d4	-0.71487164
10	0xbeeffa86	-0.46870822
11	0x3f93a3f5	1.1534411
12	0xbf26ebd6	-0.6520361
13	0x3d9c34f4	0.076272875
14	0xbf3a7c16	-0.7284559
15	0x3f6f4bfd	0.93475324
16	0x3ea23512	0.31681114
17	0xbf723a9a	-0.9462067
18	0xbd4c9442	-0.049946077
19	0xbed810d4	-0.4220034
20	0xbe6d5036	-0.2317513
21	0xbe1f4647	-0.15554152
22	0x3f9ab1d6	1.2085521
23	0xbf9150c3	-1.1352772
24	0xbf53dbb9	-0.82757145
25	0x3e407061	0.18792869
26	0x3f83428b	1.0254682
27	0x3efa91ba	0.48939306
28	0x3f05f829	0.5233179
29	0xbde107a2	-0.10987784
30	0x3f0c501f	0.54809755
31	0x3f75cc88	0.96015215
32	0x3f825638	1.0182562
33	0xbfa4552d	-1.2838494
34	0xbf59da39	-0.85098606
35	0x3f38f43e	0.72247684
36	0xbfb07e7d	-1.3788601
37	0x3ec72520	0.38895512
38	0xbf8df8cc	-1.1091552
39	0x3fba89fe	1.4573362
40	0xbe67436b	-0.22584312
41	0xbeab1260	-0.33412457
42	0xbe06ce7e	-0.13164708
43	0xbecf7bb9	-0.4052408
44	0xbf75da4e	-0.9603623
45	0x3ddecea2	0.10879256
46	0xbf3b0433	-0.7305328
47	0xbf8b65d8	-1.0890455
48	0xbf463e88	-0.77439165
49	0xbf94b5ae	-1.1617944
50	0xbf17e0b1	-0.59327227
51	0x3f85ccdd	1.0453144
52	0xbee27d28	-0.44236112
53	0x3f1e1fa4	0.6176703
54	0xbfd49040	-1.6606522
55	0x3f24ca78	0.6437144
56	0xbf7ab8aa	-0.97938025
57	0x3f8b09e8	1.0862398
58	0xbed751f2	-0.42054707
59	0x3fa718e6	1.3054473
60	0x3cd2a830	0.025714964
61	0x3f51a548	0.81892824
62	0x3f221f00	0.6332855
63	0xbf82e06c	-1.0224738
64	0xbf37e971	-0.7184058
65	0x3fd5528c	1.6665816
66	0x3fc0f5ff	1.5075072
67	0x3ec6a7ba	0.3879984
68	0xbef7257d	-0.4827079
69	0xbf4bfc7c	-0.79682136
70	0xbfac05fa	-1.3439324
71	0x3f59071e	0.84776485
72	0xbf9c85f8	-1.2228384
73	0x3fc70bd2	1.5550482
74	0x3fa4a00a	1.286134
75	0xbf907d04	-1.1288152
76	0xbef6ff3f	-0.48241612
77	0xbf99715e	-1.1987722
78	0xbf33cee7	-0.7023758
79	0x3f811eee	1.0087564
80	0xbf38eb24	-0.72233796
81	0xbf0e93f1	-0.5569449
82	0x3f9cb8f1	1.224394
83	0x3e74c4d1	0.23903205
84	0x3f3fc0be	0.74903476
85	0x3ea30d6b	0.31846175
86	0xbf11aa66	-0.5690063
87	0x3f574eae	0.8410443
88	0xbfa5c366	-1.2950256
89	0xbf629549	-0.8850904
90	0x3f922b57	1.1419476
91	0x3f7d9b2b	0.9906489
92	0x3e582315	0.21107133
93	0xbfa9db0d	-1.3269974
94	0xbf68e241	-0.90970236
95	0x3f060d6f	0.5236425
96	0xbf3ce38e	-0.7378472
97	0xbf839d45	-1.028237
98	0xbf697dbe	-0.9120749
99	0xbf9cb107	-1.2241524
100	0xbf2e7f08	-0.68162584
101	0xbe0abcd5	-0.13548596
102	0x3f102874	0.56311727
103	0x3faab1f0	1.3335552
104	0x3f444b5e	0.766775
105	0xbfa1a15c	-1.2627368
106	0x3f8f6c2f	1.120489
107	0xbe0e32ab	-0.13886516
108	0x3fa21457	1.2662457
109	0xbefb3561	-0.49064162
110	0x3f5a0f2e	0.8517941
111	0x3fc2a738	1.5207281
112	0xbed47cca	-0.41501456
113	0xbf40b1bd	-0.7527121
114	0xbf070606	-0.52743566
115	0x3e8f3f80	0.27978134
116	0xbf035264	-0.51297593
117	0xbe1e961e	-0.15486953
118	0x3f6b7db8	0.91988707
119	0xbe50d08b	-0.20392053
120	0x3ed91c93	0.42404613
121	0x3ee2d568	0.4430344
122	0x3f9e9ad1	1.2390996
123	0xbf804883	-1.0022129
124	0xbf57ad3e	-0.8424872
125	0xbf8b846c	-1.0899787
126	0xbf11c2f8	-0.56938124
127	0x3f0b1b31	0.54338366

input_layer.1.running_var f4 [128]
0	0x3dccdc86	0.10002999
1	0x3e65f0cf	0.22455142
2	0x3e13adcd	0.14421768
3	0x3e438107	0.19092189
4	0x3e705216	0.23468813
5	0x3e0192bc	0.12653631
6	0x3ddb4a60	0.10707545
7	0x3e14a914	0.14517623
8	0x3e44a615	0.1920398
9	0x3e21bdca	0.15795055
10	0x3e0bf935	0.13669284
11	0x3e0ec7b1	0.13943364
12	0x3e113e77	0.14183985
13	0x3dd0f0d9	0.10202188
14	0x3e1be5b8	0.1522435
15	0x3e42d6ca	0.19027248
16	0x3d3872ba	0.045031287
17	0x3e53c32f	0.20679925
18	0x3e75a5e0	0.23989058
19	0x3e4a6c9d	0.19767995
20	0x3dee0ab0	0.11623132
21	0x3e75d03a	0.24005213
22	0x3e05f546	0.13081846
23	0x3dee3c07	0.11632543
24	0x3e0881ba	0.13330737
25	0x3e94ca52	0.29060608
26	0x3e26d142	0.16290763
27	0x3dec53b4	0.115394026
28	0x3dd109df	0.10206961
29	0x3e0556ce	0.13021395
30	0x3dcdf854	0.100571305
31	0x3d9d80ec	0.076906055
32	0x3e33b8ee	0.17551014
33	0x3e8ebe5c	0.27879608
34	0x3e3095f8	0.17244709
35	0x3de1b5f5	0.11021034
36	0x3e478014	0.19482452
37	0x3dc96bb2	0.098349944
38	0x3e012f84	0.12615782
39	0x3e466a68	0.19376528
40	0x3e7633f7	0.2404326
41	0x3da4ab34	0.08040467
42	0x3e63a140	0.2222948
43	0x3db732f3	0.08945265
44	0x3e153b48	0.14573395
45	0x3e00b594	0.12569267
46	0x3e3570d9	0.17718829
47	0x3e6e153e	0.23250291
48	0x3e85cec6	0.26134318
49	0x3dbc0f28	0.09182578
50	0x3e33cf12	0.1755946
51	0x3e50923c	0.20368284
52	0x3e5970d2	0.21234444
53	0x3de14d19	0.11001033
54	0x3e842004	0.25805676
55	0x3e419bc2	0.18907073
56	0x3e51b901	0.2048073
57	0x3e1f76d4	0.15572673
58	0x3e81c206	0.2534334
59	0x3e459eb5	0.19298823
60	0x3e12d6da	0.14339772
61	0x3e58576e	0.21127102
62	0x3e10ee47	0.14153396
63	0x3e6bc65d	0.23024888
64	0x3e142a88	0.1446935
65	0x3e2fdfa1	0.17175151
66	0x3df7d917	0.121019535
67	0x3e92e1a0	0.28687763
68	0x3e675650	0.2259152
69	0x3e664c22	0.2248998
70	0x3e69953f	0.22810839
71	0x3e8220e3	0.25415716
72	0x3e81d6a4	0.2535907
73	0x3e5260c8	0.20544732
74	0x3e3fdfe1	0.18737747
75	0x3e71b511	0.23604228
76	0x3e1d49da	0.15360203
77	0x3e79e0ed	0.24402209
78	0x3e5ca15f	0.21545933
79	0x3e021846	0.12704572
80	0x3e916706	0.28398913
81	0x3e21f135	0.1581467
82	0x3e847d16	0.25876683
83	0x3e4a003b	0.1972665
84	0x3db73597	0.08945768
85	0x3e3f1191	0.18659045
86	0x3e218179	0.15772046
87	0x3dd50361	0.10401035
88	0x3e0b5ad6	0.1360887
89	0x3e26801f	0.16259812
90	0x3e04e8d7	0.12979446
91	0x3e208e04	0.15679175
92	0x3e10e61d	0.14150281
93	0x3e8084aa	0.25101215
94	0x3e1a8a0c	0.15091723
95	0x3df6a799	0.120436855
96	0x3e0b167d	0.13582797
97	0x3e6999b1	0.22812535
98	0x3e8aa02b	0.27075323
99	0x3e2dd102	0.16974261
100	0x3dc7950d	0.09745226
101	0x3e2f1250	0.1709683
102	0x3d7eb38b	0.062182944
103	0x3e1c6f87	0.1527692
104	0x3e2bc405	0.16773994
105	0x3e93ae29	0.2884381
106	0x3ddfc3e3	0.10926034
107	0x3dffc487	0.124886565
108	0x3e2b7146	0.16742429
109	0x3e3ec26a	0.1862885
110	0x3df4188d	0.11918745
111	0x3e9e1700	0.30876923
112	0x3e150666	0.14553222
113	0x3e3dd088	0.1853658
114	0x3eabd908	0.3356402
115	0x3dc0cd57	0.094141655
116	0x3e36e3c2	0.1786032
117	0x3e06ec8f	0.13176177
118	0x3e301716	0.17196307
119	0x3db6ed5c	0.089319915
120	0x3e4641c2	0.19361022
121	0x3dbf30bf	0.093354695
122	0x3e2720a7	0.1632105
123	0x3e5689b5	0.20950969
124	0x3e362e22	0.17791036
125	0x3e4cb06b	0.19989173
126	0x3e7a711e	0.24457213
127	0x3e43a29e	0.19105002

residual_blocks.0.linear1.weight f4 [64, 128]
0	0x3e66f4f0	0.22554374
1	0x3d2286dd	0.039679397
2	0xbe80e3df	-0.25173852
3	0x3e0f469e	0.13991782
4	0x3e6fde8f	0.23424743
5	0xbe3f6d69	-0.1869408
6	0x3e8e7f3f	0.27831456
7	0xbde99032	-0.11404456
8	0x3dc70e64	0.09719542
9	0xbdd72ed2	-0.10506977
10	0x3d6c395f	0.0576719
11	0x3df4bdd4	0.11950269
12	0xbe228ab6	-0.15873227
13	0xbdbd8326	-0.0925353
14	0x3c00140a	0.007817278
15	0xbdae4a6b	-0.08510288
16	0x3e1c2d97	0.15251766
17	0xbe8adef8	-0.27123237
18	0x3d3961a6	0.04525914
19	0xbd57f71f	-0.052725907
20	0x3cc134fb	0.023584833
21	0x3e6a7a9c	0.22898334
22	0xbe4bd079	-0.19903745
23	0xbdd4a59d	-0.10383151
24	0x3e89826d	0.2685732
25	0x3ebe97ef	0.3722529
26	0xbb6a5c67	-0.0035760642
27	0x3defb208	0.11703879
28	0x3de14a8c	0.11000547
29	0xbe4740d3	-0.19458322
30	0x3e465810	0.1936953
31	0x3d3dea3f	0.046365973
32	0xbe23c8d3	-0.15994577
33	0xbdfaf419	-0.12253589
34	0x3e5b248d	0.21400662
35	0xbd1c1444	-0.038105264
36	0x3e24dc8a	0.16099754
37	0x3de3e64a	0.111279085
38	0x3dc038a9	0.09385807
39	0x3e8344fe	0.25638574
40	0xbd049901	-0.03237248
41	0xbe33fae1	-0.17576171
42	0x3e22e244	0.15906626
43	0xbd6eb2d6	-0.05827602
44	0x3eb469cd	0.3523697
45	0xbe15bf3d	-0.14623733
46	0x3d93e695	0.072217144
47	0x3d23c5b3	0.039983463
48	0xbe642925	-0.2228132
49	0x3da66882	0.08125402
50	0xbdadeb62	-0.08492161
51	0x3e4549a4	0.19266373
52	0x3e96415b	0.29346737
53	0xbdfce14f	-0.12347662
54	0x3e1113c3	0.14167695
55	0xbd61c98c	-0.05512385
56	0xbd5115ac	-0.05104606
57	0x3e377059	0.17913951
58	0x3d70d0ff	0.058793064
59	0xbd0e8c16	-0.034801565
60	0xbe380f2f	-0.17974542
61	0x3cf38928	0.029728487
62	0x3e837dc3	0.25681886
63	0x3e166903	0.14688496
64	0x3e4e1921	0.20126773
65	0x3cb5b774	0.022182204
66	0xbd9be0c5	-0.07611231
67	0x3e5608de	0.2090182
68	0x3eabc80f	0.3355107
69	0x3b88e25d	0.004177375
70	0x3da5fa13	0.081043385
71	0xbdc71b99	-0.09722061
72	0xbbcf1294	-0.0063193534
73	0xbeb72f4a	-0.35778266
74	0xbe531977	-0.20615183
75	0x3ea973a1	0.3309603
76	0x3de0caa6	0.10976152
77	0xbe5e4844	-0.21707255
78	0xba5d797e	-0.00084485847
79	0xbe3a22a3	-0.18177275
80	0x3e824a4f	0.25447318
81	0x3b99a455	0.0046887794
82	0xbb90c985	-0.0044185543
83	0xbe525c95	-0.2054313
84	0x3dbb5cc7	0.09148555
85	0x3e3f89ee	0.1870496
86	0x3e8c72f3	0.2743145
87	0x3d874716	0.066053554
88	0x3e1c7cc2	0.15281966
89	0xbd991ccd	-0.074761964
90	0xbc2ec1d3	-0.0106663285
91	0x3dc9fc6c	0.09862599
92	0x3e828c47	0.25497648
93	0x3e633134	0.22186738
94	0x3db35563	0.087565206
95	0xbe650b43	-0.22367577
96	0x3d6f4b35	0.058421332
97	0x3cefbe1d	0.029265458
98	0x3e7ac732	0.2449005
99	0xbd252a17	-0.040323343
100	0x3e370a6f	0.17875074
101	0x3dda8071	0.106690295
102	0xbe79a00e	-0.24377462
103	0xbdaae551	-0.0834452
104	0xbdbc990b	-0.09208878
105	0xbdb034ea	-0.086038426
106	0xbdebc421	-0.11512018
107	0x3ec940fc	0.39307392
108	0xbd10f060	-0.03538549
109	0xbde2b664	-0.110699445
110	0x3cc77fd5	0.024352947
111	0x3e93be8e	0.2885632
112	0x3e6ed36b	0.23322837
113	0x3ea1b38b	0.31582293
114	0x3e98c369	0.29836586
115	0x3e07b723	0.13253455
116	0xbe2532dd	-0.16132684
117	0x3db6547c	0.08902833
118	0x3e9bedd4	0.30454886
119	0xbc7e6a39	-0.015528255
120	0xbeb34475	-0.35013166
121	0x3dc2dd18	0.095148265
122	0xbd8a11d8	-0.06741685
123	0x3e4a5b4e	0.19761392
124	0x3e84ad4b	0.25913462
125	0x3e0a6087	0.13513385
126	0x3eaa75fe	0.33293146
127	0xbd81bb99	-0.063346095
128	0xbe0e7e8b	-0.1391546
129	0x3f36a5fe	0.71347034
130	0x3cdca0b5	0.0269321
131	0x3d9fd754	0.078047425
132	0xbe59d9d7	-0.21274506
133	0x3e3138bf	0.17306803
134	0x3e96eac0	0.29475975
135	0x3d35f3a5	0.04442181
136	0x3cf901f3	0.030396437
137	0x3dcb99c7	0.0994144
138	0x3e58afb3	0.21160774
139	0x3cf6fa92	0.030148778
140	0xbe45e48b	-0.19325463
141	0x3e9b7940	0.30365944
142	0x3e9f8de4	0.3116294
143	0xbd1d017b	-0.03833149
144	0xbdea60aa	-0.114442185
145	0xbda96d3f	-0.0827279
146	0xbc26a4ac	-0.010171097
147	0x3e042251	0.12903716
148	0xbdd9168e	-0.10600005
149	0xbbda15a0	-0.00665541
150	0xbe49bdfb	-0.19701378
151	0x3e412993	0.18863516
152	0xbe1339dc	-0.1437754
153	0x3ebadb5f	0.36495492
154	0xbde358b6	-0.11100905
155	0x3e554215	0.2082599
156	0x3e9bc66d	0.30424824
157	0x3dbaf768	0.0912922
158	0x3c9b8600	0.018984795
159	0x3b82c02c	0.003990194
160	0xbe1d32c7	-0.15351401
161	0x3f33f932	0.70302117
162	0x3e285f57	0.1644262
163	0xbef81bf9	-0.4845884
164	0x3eccefa1	0.40026572
165	0x3e350c92	0.17680576
166	0x3e964040	0.29345894
167	0x3c7fdc8d	0.015616548
168	0x3e117391	0.14204241
169	0xbdadfa4c	-0.08495006
170	0xbd9263ee	-0.07147966
171	0xbd4b14a7	-0.049580242
172	0x3ec83ba2	0.39107996
173	0xbea77509	-0.32706478
174	0x3e9fefac	0.31237543
175	0x3f2a348f	0.6648645
176	0xbcfc957c	-0.030832998
177	0x3df50d13	0.11965384
178	0x3dce6535	0.100778975
179	0xbe250ec5	-0.16118915
180	0x3e27f3d4	0.16401607
181	0xbd8312b8	-0.06400055
182	0xbd05e2f5	-0.032687146
183	0x3db59b36	0.08867495
184	0x3ecca3a6	0.39968604
185	0x3e26aa97	0.16276012
186	0x3deac039	0.11462445
187	0x3e689c1b	0.227158
188	0x3ea49f3c	0.32152736
189	0x3e545474	0.20735341
190	0xbdb67716	-0.089094326
191	0xbd228ce4	-0.039685145
192	0x3eef8939	0.4678438
193	0x3ec0a909	0.37628964
194	0x3e92a664	0.2864257
195	0x3e9cfca8	0.3066151
196	0x3dbd224f	0.092350595
197	0xbe16303a	-0.14666834
198	0x3f15e98b	0.58559483
199	0x3e7da9ad	0.24771757
200	0x3f01754b	0.505696
201	0xbda34a40	-0.079731464
202	0x3b1032ce	0.0022002938
203	0x3ec4234d	0.38308182
204	0x3d84c113	0.064821385
205	0xbcbb07aa	-0.022830803
206	0x3d6d0d5a	0.05787406
207	0x3ceef7c2	0.029170875
208	0x3e228124	0.15869576
209	0xbce2a7f5	-0.027667979
210	0x3d0a896e	0.03382247
211	0x3de11919	0.10991115
212	0x3ddccb5f	0.107809775
213	0xbe07e762	-0.1327186
214	0x3ebd1945	0.36933342
215	0xbe736656	-0.23769507
216	0x3d9db2b6	0.07700102
217	0x3ec0be05	0.37644973
218	0xbe65af5f	-0.2243018
219	0xbc9335a0	-0.017969906
220	0x3ecf12ce	0.40444034
221	0x3eb0808f	0.34473082
222	0xbe062e7c	-0.1310367
223	0x3e4593ff	0.19294737
224	0xbedd73f2	-0.43252522
225	0x3f2bc66c	0.6709964
226	0xbe6198c8	-0.22030938
227	0xbcc598a4	-0.024120636
228	0xbd852eeb	-0.065030895
229	0x3cbf9cb2	0.023390148
230	0x3e409118	0.18805349
231	0x3ec15d8e	0.3776669
232	0xbdc864d7	-0.09784859
233	0x3f03a79f	0.51427644
234	0x3d354766	0.044257544
235	0xbba56e63	-0.0050485595
236	0x3e635030	0.22198558
237	0xbe1d134c	-0.15339392
238	0x3d21460c	0.039373443
239	0x3e2b2b21	0.16715671
240	0xbd654c5c	-0.055981025
241	0xbdcc002e	-0.09960972
242	0x3eaa15f0	0.33219862
243	0x3c731645	0.014836852
244	0xbe8aa8d1	-0.27081922
245	0xbdf26f79	-0.11837668
246	0xbc15e7c2	-0.009149494
247	0x3e06c632	0.13161543
248	0xbd810c13	-0.06301131
249	0xbd691d13	-0.056912493
250	0x3ed8f463	0.42373952
251	0x3eac5ebd	0.3366603
252	0x3eacef16	0.33776158
253	0x3f0c137e	0.5471724
254	0x3e22de1a	0.15905038
255	0x3df84f62	0.12124516

residual_blocks.0.linear1.bias f4 [64]
0	0x3c4c1b00	0.012457609
1	0x3c4b9bbb	0.012427266
2	0x3c1dbdff	0.009627818
3	0x3c4a6441	0.012353004
4	0x3c2d08c1	0.010561169
5	0x3c62d428	0.013844527
6	0x3c06b935	0.008222868
7	0x3be7b88c	0.0070715602
8	0x3c1d6f79	0.009609097
9	0x3c120076	0.008911243
10	0x3c3e5d79	0.011618965
11	0x3bee155e	0.0072657308
12	0x3c3eac01	0.011637689
13	0x3c4085b4	0.011750627
14	0x3c2493fa	0.010045046
15	0x3c193a3e	0.009352265
16	0x3c81f24c	0.015862606
17	0x3c2188b5	0.009859254
18	0x3c22dd3d	0.009940443
19	0x3c787ac6	0.01516599
20	0x3bac613a	0.0052606137
21	0x3c13d2c7	0.009022421
22	0x3c55c63d	0.013047752
23	0x3c5d08dc	0.013490882
24	0x3bf3a1b5	0.0074350485
25	0x3c1ce2f8	0.009575598
26	0x3c15b2b7	0.009136847
27	0x3c0e3d87	0.008681661
28	0x3c0bba09	0.008528241
29	0x3bd05e5c	0.0063589048
30	0x3c2e470f	0.010637059
31	0x3c24f980	0.010069251
32	0x3b94eb04	0.0045446176
33	0x3c2bd207	0.010487086
34	0x3c65a282	0.014015796
35	0x3c4f6906	0.012659317
36	0x3c30f658	0.01080092
37	0x3c2dcb9a	0.010607624
38	0x3c1e3760	0.009656757
39	0x3c653dce	0.013991786
40	0x3c19fdd9	0.009398901
41	0x3c0c107a	0.00854885
42	0x3c5cc82d	0.01347546
43	0x3c4732cb	0.012158106
44	0x3c1a51db	0.00941893
45	0x3c21c5ce	0.0098738205
46	0x3c3d85cb	0.011567543
47	0x3c1cffbe	0.009582458
48	0x3c0d43ab	0.00862209
49	0x3c4413a9	0.011967578
50	0x3c20a33d	0.009804544
51	0x3be13715	0.0068730214
52	0x3c3cbbd1	0.011519388
53	0xb9825255	-0.00024856874
54	0x3c2beded	0.010493738
55	0x3bd0e537	0.006374981
56	0x3c3eade6	0.01163814
57	0x3c39f846	0.011350697
58	0x3c21ffa9	0.009887614
59	0x3ba7232c	0.0051006284
60	0x3c3c5d0e	0.011496795
61	0x3c437bac	0.011931341
62	0x3c0e6c59	0.008692824
63	0x3c334b9e	0.0109433215

residual_blocks.0.bn1.weight f4 [64]
0	0x3f36afac	0.71361804
1	0x3fa9bbd3	1.3260444
2	0x3f634efc	0.88792396
3	0x3f839482	1.0279696
4	0x3f903498	1.126605
5	0x3f9abb50	1.2088413
6	0x3f84102d	1.0317436
7	0x3fb89a4a	1.4422085
8	0x3f6f631e	0.93510616
9	0x3fa5950d	1.2936112
10	0x3fb2ca97	1.3968076
11	0x3f7de0b2	0.9917098
12	0x3f5bf39b	0.8591859
13	0x3f9ebc30	1.240118
14	0x3f181eaf	0.5942182
15	0x3f5dce12	0.86642563
16	0x3f1c326a	0.61014426
17	0x3f1b77d0	0.60729694
18	0x3f32009d	0.69532186
19	0x3f9489ab	1.1604513
20	0x3f4aec2d	0.79266626
21	0x3f50d534	0.8157532
22	0x3fadc708	1.3576365
23	0x3f8407bf	1.0314864
24	0x3f37249a	0.71540225
25	0x3f684f6e	0.907462
26	0x3f9b78c9	1.2146236
27	0x3f8c46e9	1.095914
28	0x3f5be74e	0.8589982
29	0x3f7faebd	0.99876004
30	0x3f7d616b	0.98976773
31	0x3f7d6e79	0.9899669
32	0x3fc1d4a8	1.5143023
33	0x3f2d3fe1	0.67675596
34	0x3f82e0ff	1.0224913
35	0x3f5147e8	0.81750345
36	0x3f2f84e5	0.68562156
37	0x3f708e4c	0.9396713
38	0x3faa9de4	1.3329434
39	0x3fa43b89	1.2830669
40	0x3f73be37	0.9521212
41	0x3f850d7c	1.039474
42	0x3f7e093b	0.99232835
43	0x3f818a32	1.0120299
44	0x3f48c780	0.7842941
45	0x3f954041	1.1660234
46	0x3f714988	0.94252825
47	0x3f2a3a4a	0.6649519
48	0x3fb8d10d	1.4438797
49	0x3f7eae1a	0.9948441
50	0x3fe3eb3a	1.780616
51	0x3fb244c4	1.3927236
52	0x3f7a8ae3	0.97868174
53	0x3f801a75	1.0008074
54	0x3f812d91	1.0092031
55	0x3fa8d967	1.3191346
56	0x3fa3f2f3	1.2808517
57	0x3f499a14	0.7875073
58	0x3f8ace2a	1.0844166
59	0x3f475f4c	0.77879786
60	0x3f006b0a	0.5016333
61	0x3f83419b	1.0254396
62	0x3f436f77	0.76341957
63	0x3f8dd944	1.1081929
